7767517
7 7
Input                    in0                      0 1 in0
Permute                  permute_5                1 1 in0 1 0=1
Convolution1D            conv1drelu_0             1 1 1 2 0=128 1=5 2=1 3=1 4=2 5=1 6=163840 9=1
Convolution1D            conv1drelu_1             1 1 2 3 0=128 1=3 2=1 3=1 4=1 5=1 6=49152 9=1
Pooling1D                amp1d_7                  1 1 3 4 0=0 7=1 8=1
Squeeze                  squeeze_6                1 1 4 5 -23303=1,1
InnerProduct             linear_2                 1 1 5 out0 0=3 1=1 2=384
