7767517
7 7
Input                    in0                      0 1 in0
Convolution1D            conv1drelu_0             1 1 in0 1 0=32 1=1 2=1 3=1 4=0 5=1 6=160 9=1
Convolution1D            conv1drelu_1             1 1 1 2 0=64 1=1 2=1 3=1 4=0 5=1 6=2048 9=1
Convolution1D            conv1drelu_2             1 1 2 3 0=64 1=1 2=1 3=1 4=0 5=1 6=4096 9=1
Convolution1D            conv1drelu_3             1 1 3 4 0=128 1=1 2=1 3=1 4=0 5=1 6=8192 9=1
Convolution1D            conv1drelu_4             1 1 4 5 0=256 1=1 2=1 3=1 4=0 5=1 6=32768 9=1
Reduction                max_10                   1 1 5 out0 0=4 1=0 -23303=1,1 4=0 5=1
